src/dqn.pt (torch, 74844 bytes, 6 tensors)

layer1.weight f4 [128, 6]
1.3147957 -0.22882262 17.622925 -5.374551 -0.08181075 -6.366432 0.6665457 -2.5149817
17.416052 -8.965731 -1.4744743 -8.167153 0.26369593 -1.1902128 17.43141 -7.7300167
-0.48307884 -7.2308674 -0.0074058515 1.2274518 12.955467 -0.16967165 1.119773 -0.77946854
-0.32880545 -0.1815902 0.2887725 -0.20841384 0.020134628 -0.0002876485 -0.11933276 0.20828786
0.23994406 -0.14768717 -0.19789779 0.17907405 -0.18174948 -0.31460214 -0.14081722 0.04863195
-0.12231041 -0.13497718 0.1298846 -0.052581605 17.707766 -6.7840533 -0.00035454382 -6.6049743
-0.0214288 -0.18503116 -0.15910718 -0.2611652 -0.08906856 0.05866613 0.313121 -0.23014489
17.449577 -6.0753393 0.014381867 -6.839745 0.64568293 -2.445386 17.425447 -8.878561
-1.4068831 -7.9549527 -0.09735555 0.32279995 0.20913346 0.030206079 -0.12614486 -0.041883145
-0.22157869 0.047537412 -0.19022751 -0.017419018 -0.29930782 0.03935664 0.60240185 -2.2043061
17.286219 -8.698689 -1.1827954 -7.4295764 -0.22526295 0.0661962 -0.04407151 0.32801935
-0.10323682 -0.3207673 0.11978873 -15.0413885 17.281675 -12.718956 -14.09886 -9.295865
-0.004217725 0.958545 14.508293 -1.7524902 0.607508 -2.953914 -0.0725277 0.6351217
-8.237202 -2.606199 1.2483808 -4.63361 -0.16912816 0.03934721 -0.20826228 0.056743104
-0.13896914 0.045487717 0.46370572 -1.6842633 17.929808 -8.330411 -0.93060786 -7.259053
0.0861594 -0.6168206 17.57011 -6.415984 -0.11166919 -6.5471635 -0.245885 -0.29895627
-0.1218233 0.047596667 -0.23838384 0.25592548 0.111904316 -14.223547 17.857092 -12.414034
-13.134498 -8.76917 -0.5115911 0.68216515 0.56900024 0.09690685 0.6469511 -0.13205807
-0.008040534 1.3899381 13.096692 -0.18204875 1.2796227 -0.87679327 0.12166532 -15.334251
17.688002 -12.443309 -14.322475 -9.095346 -0.3081419 0.018385164 0.12607959 0.32707343
-0.052100826 -0.10429464 0.056227244 -7.281263 17.558172 -8.254498 -6.3653383 -7.779443
-0.1768919 0.1034313 0.09718303 -0.18927138 -0.13348214 -0.2298423 0.3498308 2.2481914
-18.191992 8.244849 1.6799234 7.4838915 -0.040018693 0.05972919 0.21997039 -0.25585914
-0.16098963 -0.060919918 0.32091427 -0.96625865 17.808634 -7.439657 -0.49011353 -7.0657954
0.6663303 1.6581118 -16.111095 12.3953905 1.826265 12.848178 0.061297942 -7.5424905
17.54157 -9.056327 -7.010952 -8.405368 0.45294344 -3.6089792 17.302652 -9.62434
-2.3493173 -8.307493 0.17717482 -4.689391 17.26872 -10.105287 -3.4123197 -8.0990505
-0.28730723 -0.12704095 -0.1942773 -0.057907213 -0.0890275 -0.0037988978 0.9645532 -1.2959781
17.503939 -7.304934 -1.139534 -7.636095 0.2590234 -4.523963 17.385632 -10.335479
-3.1359022 -7.9248643 -0.006597266 1.0451137 13.56501 -0.5304076 0.9572676 -1.6451782
0.022996284 -0.2593293 17.42663 -7.271682 -0.009465066 -6.8016663 0.13611086 -16.80429
17.38365 -13.416438 -16.17513 -8.936102 -0.19065665 0.06939703 -0.2623916 0.08217296
00000000: 3a4b a83f 7a50 6abe c0fb 8c41 52fc abc0
00000010: 658c a7bd d0b9 cbc0 bda2 2a3f 76f5 20c0
00000020: 1354 8b41 a273 0fc1 93bb bcbf a9ac 02c1
00000030: 2703 873e e558 98bf 8773 8b41 4c5c f7c0
00000040: 1c56 f7be 4463 e7c0 c9ac f2bb 241d 9d3f
00000050: 9849 4f41 68be 2dbe b954 8f3f 408b 47bf
00000060: 3059 a8be c8f2 39be fdd9 933e 706a 55be
00000070: 60f1 a43c 87cf 96b9 bc64 f4bd 6a49 553e
00000080: e5b3 753e 4e3b 17be b8a5 4abe 305f 373e
00000090: 891c 3abe 8813 a1be 6432 10be 4c32 473d
000000a0: e17d fabd 7537 0abe 7800 053e cf5f 57bd
000000b0: 81a9 8d41 f716 d9c0 11e2 b9b9 f35b d3c0
000000c0: 738b afbc cf78 3dbe feec 22be 72b7 85be
000000d0: 9469 b6bd e54b 703d 6551 a03e 1aab 6bbe
000000e0: bc98 8b41 2e69 c2c0 eca1 6b3c 31df dac0
000000f0: 7a4b 253f 3481 1cc0 5167 8b41 960e 0ec1
00000100: bf14 b4bf f98e fec0 5962 c7bd 0946 a53e
00000110: 1527 563e bd72 f73c 1e2c 01be a98d 2bbd
00000120: 86e5 62be 97b6 423d 00cb 42be 54b2 8ebc
00000130: e03e 99be 6e34 213d 0237 1a3f 5a13 0dc0
00000140: 2d4a 8a41 d52d 0bc1 d765 97bf 17bf edc0
00000150: 55ab 66be e091 873d 5484 34bd 27f2 a73e
00000160: d36d d3bd 9d3b a4be cb53 f53d 87a9 70c1
00000170: df40 8a41 d880 4bc1 ee94 61c1 ddbb 14c1
00000180: d734 8abb 3563 753f f821 6841 9951 e0bf
00000190: a585 1b3f ed0c 3dc0 6789 94bd 5697 223f
000001a0: 94cb 03c1 f7cb 26c0 f1ca 9f3f 8846 94c0
000001b0: ef2f 2dbe 8a2a 213d b542 55be 756b 683d
000001c0: ed4d 0ebe 5451 3a3d d66a ed3e f195 d7bf
000001d0: 3f70 8f41 5d49 05c1 513c 6ebf 2a4a e8c0
000001e0: 5774 b03d f4e7 1dbf 968f 8c41 be4f cdc0
000001f0: d1b2 e4bd 5d82 d1c0 47c9 7bbe cc10 99be
00000200: 7f7e f9bd b9f4 423d e51a 74be aa08 833e
00000210: 172e e53d a693 63c1 53db 8e41 e29f 46c1
00000220: e726 52c1 854e 0cc1 a2f7 02bf 60a2 2e3f
00000230: 00aa 113f 1977 c63d 969e 253f 3b3a 07be
00000240: 72bc 03bc 7ee9 b13f 0d8c 5141 fd6a 3abe
00000250: adca a33f 8675 60bf ab2b f93d 1859 75c1
00000260: 0781 8d41 cb17 47c1 dc28 65c1 8a86 11c1
00000270: c6c4 9dbe 7c9c 963c 021b 013e 2b76 a73e
00000280: ad67 55bd 6e98 d5bd 8a4e 663d 1b00 e9c0
00000290: 2377 8c41 6c12 04c1 dab0 cbc0 32f1 f8c0
000002a0: 2623 35be cad3 d33d e507 c73d 5bd0 41be
000002b0: 8baf 08be c85b 6bbe 061d b33e 5ee2 0f40
000002c0: 3389 91c1 e7ea 0341 bb07 d73f 0a7c ef40
000002d0: a4ea 23bd 98a6 743d eb3f 613e f8ff 82be
000002e0: 77da 24be 2a87 79bd e04e a43e ba5c 77bf
000002f0: 1578 8e41 ac11 eec0 29f0 fabe ff1a e2c0
00000300: 9f94 2a3f 023d d43f 86e3 80c1 8553 4641
00000310: 0dc3 e93f 2392 4d41 8d13 7b3d 155c f1c0
00000320: 2355 8c41 b7e6 10c1 b859 e0c0 637c 06c1
00000330: 34e8 e73e 84f9 66c0 d56b 8a41 4cfd 19c1
00000340: 375b 16c0 7eeb 04c1 516d 353e 7e0f 96c0
00000350: 5726 8a41 41af 21c1 7263 5ac0 b695 01c1
00000360: ef19 93be 0617 02be a1f0 46be 1d30 6dbd
00000370: 0d54 b6bd eef6 78bb f5ec 763f 9ce2 a5bf
00000380: 1108 8c41 05c2 e9c0 40dc 91bf e45a f4c0
00000390: b79e 843e 4ec4 90c0 c615 8b41 1f5e 25c1
000003a0: 9fb2 48c0 7d98 fdc0 e12d d8bb 49c6 853f
000003b0: 480a 5941 cbc8 07bf 7d0f 753f 3395 d2bf
000003c0: b462 bc3c cfc6 84be bd69 8b41 9eb1 e8c0
000003d0: 5d13 1bbc 40a7 d9c0 a560 0b3e 306f 86c1
000003e0: b711 8b41 bba9 56c1 ab66 81c1 46fa 0ec1
000003f0: 7f3b 43be 0820 8e3d 3158 86be 4c4a a83d

layer1.bias f4 [128]
14.8855295 15.342439 14.986794 11.393333 0.03676308 0.21309415 0.27344045 15.403593
-0.32655582 15.244845 15.798427 -0.18637031 -0.26313436 15.709202 -0.08722451 16.60647
12.321299 -3.9826648 0.19791554 15.5113 15.539108 0.2098116 16.561724 1.0015347
11.205886 16.67425 -0.22360769 15.708449 0.051559187 -15.098786 -0.10618399 14.854765
-12.107829 16.174229 15.540388 15.736308 -0.14041995 15.216389 15.407155 12.286118
15.140454 16.529322 0.1616078 15.284475 1.2194799 -0.026838878 -0.22040752 15.562125
3.3979487 -0.29681945 0.23835595 -0.043607928 0.11759556 0.17956263 15.609072 15.612643
15.51263 -1.461459 15.173261 0.31506568 -0.18331683 -0.1800216 -4.68308 0.039672714
-3.6197977 15.339754 -0.083406776 14.958495 15.444901 16.564909 14.992569 15.0467615
15.48087 -0.24490674 16.74735 1.2341384 -0.2798065 -15.613126 -0.2250509 14.686196
0.027933817 -0.046719596 16.512774 -0.052581172 0.31001562 -2.909057 -0.20915163 -15.215319
-0.04669105 -0.025439536 -0.008945695 15.109696 14.754969 16.438229 12.212056 0.29442862
-2.728268 15.3374195 11.937509 15.456657 15.459436 15.311735 0.040935613 10.837083
14.1190195 -0.068491146 16.452477 -0.095602766 15.171168 11.97217 15.525879 15.040892
-0.16373397 -0.24309279 0.1950131 15.0970335 -0.25953242 15.454569 16.484 0.19623908
-14.925492 0.15495193 16.703213 0.5369084 10.696274 16.737041 -0.0042339806 -0.010436347
00000000: 212b 6e41 a17a 7541 e9c9 6f41 184b 3641
00000010: e294 163d 5a35 5a3e 6300 8c3e 1e75 7641
00000020: 5332 a7be e3ea 7341 5bc6 7c41 dcd7 3ebe
00000030: 8cb9 86be e458 7b41 c4a2 b2bd 0dda 8441
00000040: 0a24 4541 fbe3 7ec0 5faa 4a3e 492e 7841
00000050: 30a0 7841 dad8 563e 697e 8441 4a32 803f
00000060: 4f4b 3341 dd64 8541 6af9 64be cf55 7b41
00000070: ba2f 533d a194 71c1 fe76 d9bd 1ead 6d41
00000080: abb9 41c1 d264 8141 6ea5 7841 ebc7 7b41
00000090: 3fca 0fbe 5476 7341 b583 7641 f093 4441
000000a0: 4d3f 7241 0d3c 8441 847c 253e 368d 7441
000000b0: eb17 9c3f 35dd dbbc 82b2 61be 77fe 7841
000000c0: fe77 5940 b8f8 97be 9513 743e 3a9e 32bd
000000d0: f1d5 f03d 44df 373e c2be 7941 63cd 7941
000000e0: bc33 7841 1711 bbbf adc5 7241 4a50 a13e
000000f0: 68b7 3bbe 9557 38be cbdb 95c0 db7f 223d
00000100: c4aa 67c0 a26f 7541 2cd1 aabd ff55 6f41
00000110: 511e 7741 ef84 8441 90e1 6f41 89bf 7041
00000120: a5b1 7741 d5c8 7abe 93fa 8541 3ff8 9d3f
00000130: cc42 8fbe 5dcf 79c1 be73 66be a9fa 6a41
00000140: 76d5 e43c 0c5d 3fbd 291a 8441 5b5f 57bd
00000150: 5eba 9e3e fd2d 3ac0 d82b 56be f271 73c1
00000160: 1d3f 3fbd 9366 d0bc f790 12bc 51c1 7141
00000170: 5a14 6c41 7e81 8341 9564 4341 59bf 963e
00000180: f19b 2ec0 1266 7541 0900 3f41 784e 7741
00000190: da59 7741 defc 7441 1aac 273d b164 2d41
000001a0: 81e7 6141 1645 8cbd ac9e 8341 62cb c3bd
000001b0: 1bbd 7241 028e 3f41 006a 7841 7ea7 7041
000001c0: e1a9 27be 51ed 78be 84b1 473e 738d 7141
000001d0: 6fe1 84be ea45 7741 3bdf 8341 e6f2 483e
000001e0: d1ce 6ec1 b8ab 1e3e 2ea0 8541 d472 093f
000001f0: f023 2b41 76e5 8541 34bd 8abb 36fd 2abc

layer2.weight f4 [128, 128]
-0.015329034 0.0414547 -0.06778249 -0.011353685 0.03329286 0.036269818 0.007344436 0.057090025
0.03683744 -0.07264574 -0.025985364 -0.014964675 0.04598756 0.007945814 -0.05638007 -0.021554295
0.017465403 0.027385952 -0.05315999 0.04663793 0.05863923 -0.015112858 0.038120978 0.052814364
-0.05439991 0.02654553 0.0108211255 0.038269684 0.048137452 -0.03527399 0.05168261 -0.06361262
-0.07028881 0.052766096 -0.0040912735 -0.07179678 -0.035510156 0.06487521 0.045819435 0.034310445
-0.054820605 0.014048573 0.0002176885 -0.04628825 -0.02012249 -0.013173046 -0.0012578358 0.034728497
0.060187403 0.05214314 -0.0018601326 0.057419516 0.01445748 -0.025891555 -0.033650994 -0.024957502
-0.07486044 -0.034498196 -0.029366419 0.037250016 -0.07108101 -0.02088261 0.052177582 -0.03665706
-0.024883673 0.03678303 -0.015566344 -0.031016005 -0.0018070427 0.061808456 -0.0697806 0.011686556
0.02220638 -0.06687963 -0.013406569 0.044537146 0.04304712 -0.05309541 0.007096187 -0.07446235
-0.038136303 -0.042040624 -0.023038367 -0.048439525 -0.06995073 0.009913833 0.041244555 0.015001193
0.03462553 -0.06304862 -0.058030788 0.026812736 0.05546051 -0.07230113 0.052028116 -0.029253582
-0.07181814 -0.05467981 -0.073626645 -0.07594399 -0.06514771 0.044543777 -0.039802734 -0.005803635
-0.06253641 -0.04051958 -0.06295999 0.051136132 0.03948896 -0.030562585 -0.026816651 0.0645422
-0.0033864442 -0.021428293 0.0148630785 -0.061156083 0.056643456 -0.014988816 0.03589934 -0.043639496
-0.051899217 0.06417597 -0.024389058 -0.064481035 0.029525068 0.043208975 0.03639757 -0.06405039
0.13836549 0.21036673 0.5304638 2.218312 0.058823265 -0.023443306 -0.062116455 0.81166977
-0.011147053 0.30045676 0.16722752 -0.006123615 -0.07082536 0.25828797 -0.024830401 11.212543
3.4821835 -1.1295495 0.053410523 0.33259422 1.2648257 0.04930081 10.908568 -1.1204585
2.0760577 11.9493 0.059126865 8.125619 -0.037260987 -1.7106655 0.056920458 0.40007794
-0.61010396 8.682621 0.32416075 0.9212523 0.05134134 0.12860507 0.6597363 2.5957582
3.0155458 14.801891 0.06861507 0.37063548 -0.08311476 0.04365891 -0.029698042 0.9535858
-0.034713425 0.030164601 0.041110206 -0.010773095 -0.010470745 -0.030113367 1.5415764 1.2746712
0.3458449 -0.9549784 0.16082795 -0.018815251 -0.041797023 0.013673486 -0.11271431 0.06908036
-1.1170106 0.2578757 0.054236695 0.19923306 0.44917294 11.019539 0.6391175 0.35468557
0.2994398 -0.037889026 13.903115 -1.0293146 -0.007927972 -1.7774513 -0.015850062 0.33368137
-0.017463801 0.031226717 12.633738 -0.061477322 -0.07060236 -1.0410192 0.058803644 -1.7381934
-0.032860614 -0.022969648 -0.028784834 0.42691275 0.32747006 12.707238 2.5546312 0.0414379
-0.1048227 1.9310727 2.3750181 0.76834214 0.22842279 0.19561239 0.055566136 1.8671253
6.559901 0.055626165 14.11721 0.022165539 0.6227426 2.608675 0.56718993 0.57026136
-0.030010842 -0.022804245 -0.041589048 0.50744754 0.071083374 0.12316024 13.39296 -0.0024065743
-1.5342629 0.049497742 15.213637 -0.98650056 0.042370986 13.603762 0.025202857 0.03929267
00000000: a126 7bbc 67cc 293d 8cd1 8abd ce04 3abc
00000010: 185e 083d a98f 143d 98a9 f03b 3bd7 693d
00000020: dbe2 163d 4ac7 94bd 42df d4bc 652e 75bc
00000030: 745d 3c3d 292f 023c caee 66bd a292 b0bc
00000040: 9b13 8f3c 8158 e03c 4abe 59bd 6a07 3f3d
00000050: b02f 703d ec9b 77bc be24 1c3d e053 583d
00000060: 71d2 5ebd 0376 d93c 174b 313c acc0 1c3d
00000070: c72b 453d 767b 10bd 25b1 533d 5547 82bd
00000080: 94f3 8fbd 4321 583d 1710 86bb 310a 93bd
00000090: 1973 11bd 4bdd 843d 29ad 3b3d 1c89 0c3d
000000a0: 928b 60bd fc2b 663c 5043 6439 bf98 3dbd
000000b0: ecd7 a4bc c2d3 57bc f7dd a4ba 783f 0e3d
000000c0: 1187 763d 0c94 553d b1cf f3ba ba30 6b3d
000000d0: 11df 6c3c 871a d4bc a0d5 09bd ad73 ccbc
000000e0: 6e50 99bd fb4d 0dbd d891 f0bc 7993 183d
000000f0: ec92 91bd 0212 abbc 29b8 553d b725 16bd
00000100: d8d8 cbbc cda9 163d fb09 7fbc 4715 febc
00000110: 4bda ecba dd2a 7d3d 22e9 8ebd f878 3f3c
00000120: 27ea b53c 30f8 88bd 3aa7 5bbc 956c 363d
00000130: 2d52 303d 937a 59bd 2287 e83b b77f 98bd
00000140: d034 1cbd ca32 2cbd f5ba bcbc 8668 46bd
00000150: 5442 8fbd a16d 223c 0df0 283d 90c7 753c
00000160: 80d3 0d3d a31f 81bd b1b1 6dbd 62a6 db3c
00000170: 8f2a 633d 9d12 94bd 6f1b 553d 35a5 efbc
00000180: 6415 93bd f0f7 5fbd 91c9 96bd 8688 9bbd
00000190: 2a6c 85bd 8973 363d 3108 23bd 6b2c bebb
000001a0: 1713 80bd dcf7 25bd 2bf1 80bd 1f74 513d
000001b0: 2dbf 213d 635e fabc 98ae dbbc b32e 843d
000001c0: 1bef 5dbb 638a afbc 4584 733c cd7e 7abd
000001d0: f802 683d a793 75bc 300b 133d 54bf 32bd
000001e0: 4694 54bd b16e 833d 90cb c7bc a20e 84bd
000001f0: 8ede f13c e5fb 303d 9e15 153d da2c 83bd
00000200: afaf 0d3e 606a 573e 7acc 073f d3f8 0d40
00000210: aaf0 703d 2d0c c0bc d36d 7ebd 97c9 4f3f
00000220: 21a2 36bc 78d5 993e b13d 2b3e 9ba8 c8bb
00000230: e30c 91bd 523e 843e 2069 cbbc 9366 3341
00000240: 18dc 5e40 1495 90bf fec4 5a3d ca49 aa3e
00000250: cfe5 a13f a5ef 493d 7f89 2e41 2f6b 8fbf
00000260: 21de 0440 5530 3f41 032f 723d 8902 0241
00000270: fa9e 18bd 16f7 dabf 6d25 693d 04d7 cc3e
00000280: c62f 1cbf 04ec 0a41 66f8 a53e 31d7 6b3f
00000290: 4c4b 523d 0cb1 033e 7ae4 283f e720 2640
000002a0: b4fe 4040 8cd4 6c41 0f86 8c3d efc3 bd3e
000002b0: 1238 aabd afd3 323d 4f49 f3bc 331e 743f
000002c0: aa2f 0ebd c11b f73c 2d63 283d a381 30bc
000002d0: 7d8d 2bbc 4fb0 f6bc 6052 c53f 6d28 a33f
000002e0: 9512 b13e 7779 74bf 15b0 243e 7122 9abc
000002f0: 5b33 2bbd c206 603c c3d6 e6bd 017a 8d3d
00000300: 34fa 8ebf 4908 843e 4c27 5e3d c003 4c3e
00000310: fff9 e53e 0850 3041 349d 233f 5999 b53e
00000320: 2c50 993e 8631 1bbd 2973 5e41 95c0 83bf
00000330: 53e4 01bc 8683 e3bf fdd7 81bc 49d8 aa3e
00000340: 3f10 8fbc 2ccf ff3c ca23 4a41 a5cf 7bbd
00000350: f897 90bd 1e40 85bf 17dc 703d 1f7d debf
00000360: da98 06bd d82a bcbc 2cce ebbc 4f94 da3e
00000370: 28aa a73e d950 4b41 147f 2340 caba 293d
00000380: 49ad d6bd 642d f73f 4c00 1840 12b2 443f
00000390: aae7 693e 9d4e 483e 5199 633d f6fd ee3f
000003a0: b6ea d140 43d8 633d 18e0 6141 8194 b53c
000003b0: 0f6c 1f3f 88f4 2640 5c33 113f a6fc 113f
000003c0: 4cd9 f5bc f8cf babc 4759 2abd 15e8 013f
000003d0: 2994 913d 703b fc3d 9049 5641 9eb7 1dbb
000003e0: ba62 c4bf 25be 4a3d 0f6b 7341 4d8b 7cbf
000003f0: 338d 2d3d 02a9 5941 3976 ce3c 5af1 203d

layer2.bias f4 [128]
-0.06555465 14.336116 14.190321 -0.03255334 14.136505 -13.67452 0.067960724 3.7091985
-0.033166874 -0.029138217 0.02980102 14.102412 3.7496157 14.178443 -0.024779454 6.667653
-13.620196 14.158973 0.01760884 0.029253794 -13.616212 0.05496746 -13.587721 0.05920695
-0.00042640525 -0.020337338 15.572736 -8.535468 -0.05507187 -0.048065193 4.2294145 5.686279
-0.050949685 4.0076413 13.931894 14.038576 14.31139 3.5614088 0.05216661 2.3411589
-0.014627588 14.269321 6.1857634 -13.583517 0.060827043 14.163667 14.195777 -0.0062976074
6.076198 0.01113302 14.262839 14.226097 14.29097 15.323534 4.5840116 0.033454165
14.250175 14.368579 -0.034819465 0.02894896 13.74116 15.445453 14.14775 14.193415
-0.03094507 -0.043410677 0.6475396 -0.070683 14.0871315 -2.7547643 -0.03539387 14.201201
14.166481 7.6270633 15.507617 6.427556 14.123 14.257471 0.0054391157 0.048035316
0.019224605 14.274798 13.135802 7.523653 0.008308517 11.914216 14.147456 -0.06780959
14.204677 0.062158927 -0.016153503 14.146995 14.298404 0.034669343 0.02535091 -0.023052944
2.7187426 14.219961 -3.2458873 14.3116045 14.282676 13.966032 15.5921 15.436052
15.637364 14.096281 7.71553 14.142761 14.327618 0.03299682 13.788783 14.144826
15.400416 0.04396553 15.319507 0.034748755 -0.039763276 14.209333 -0.056690525 -0.06181914
8.486755 14.279487 15.672207 14.187554 14.120401 -13.562724 -0.014999873 6.235467
00000000: 8441 86bd bb60 6541 8e0b 6341 a756 05bd
00000010: 202f 6241 d5ca 5ac1 fe2e 8b3d 8263 6d40
00000020: fdd9 07bd 45b3 eebc 4521 f43c 7ba3 6141
00000030: b4f9 6f40 e7da 6241 48fe cabc 6a5d d540
00000040: 53ec 59c1 278b 6241 6a40 903c a7a5 ef3c
00000050: 01dc 59c1 8f25 613d 4e67 59c1 fd82 723d
00000060: 258f dfb9 7d9a a6bc ed29 7941 4791 08c1
00000070: 0b93 61bd 02e0 44bd 5d57 8740 fff5 b540
00000080: 9eb0 50bd 993e 8040 0ae9 5e41 029e 6041
00000090: 74fb 6441 1fee 6340 a8ac 553d 8cd5 1540
000000a0: 8da8 6fbc 244f 6441 c6f1 c540 1656 59c1
000000b0: c725 793d 619e 6241 e721 6341 295c cebb
000000c0: 3770 c240 4567 363c 9734 6441 189e 6341
000000d0: d0a7 6441 322d 7541 39b0 9240 3c07 093d
000000e0: b800 6441 b3e5 6541 db9e 0ebd 5f26 ed3c
000000f0: cbdb 5b41 9320 7741 2f5d 6241 3a18 6341
00000100: 8480 fdbc 65cf 31bd 28c5 253f 40c2 90bd
00000110: e464 6141 0f4e 30c0 2af9 10bd 1f38 6341
00000120: e8a9 6241 e710 f440 331f 7841 8aae cd40
00000130: cff7 6141 9a1e 6441 9c3a b23b aec0 443d
00000140: eb7c 9d3c 9365 6441 3f2c 5241 c4c1 f040
00000150: 7220 083c a1a0 3e41 fb5b 6241 c1df 8abd
00000160: 5b46 6341 5c9a 7e3d 5a54 84bc 175a 6241
00000170: 43c6 6441 7101 0e3d b6ac cf3c 87d9 bcbc
00000180: e1ff 2d40 f684 6341 9ebc 4fc0 55fc 6441
00000190: d785 6441 de74 5f41 3e79 7941 12fa 7641
000001a0: a532 7a41 5e8a 6141 9fe5 f640 c048 6241
000001b0: ec3d 6541 ac27 073d db9e 5c41 3551 6241
000001c0: 1b68 7641 3315 343d b31c 7541 b654 0e3d
000001d0: d1de 22bd 6e59 6341 5334 68bd 1136 7dbd
000001e0: c0c9 0741 c778 6441 5cc1 7a41 3900 6341
000001f0: 2aed 6141 eb00 59c1 07c2 75bc f288 c740

layer3.weight f4 [5, 128]
-0.032153778 0.11017537 -0.024805536 0.03128375 0.017588634 -0.29904783 -0.055489298 -0.58620876
0.039831802 -0.04132577 -0.034969833 0.023919836 -0.5913089 -0.07121702 -0.0075661354 1.458672
-0.42219475 0.027857114 0.01685698 -0.050059397 -0.35100123 -0.008088441 -0.41429335 -0.040557336
0.0356827 -0.05359274 0.2854681 0.81830585 -0.06756408 -0.0033853825 -0.67613775 -0.14999595
-0.025097549 -0.61669797 -0.1674322 -0.100791164 0.011955453 -0.3089736 0.038440008 -0.1138039
-0.03828463 -0.083651625 1.1672192 -0.36637974 -0.011479069 -0.029359752 -0.04077583 -0.038721904
0.53062916 -0.036054328 0.07215097 0.055778466 -0.120658316 0.23947664 -0.3777197 -0.056661434
-0.06796533 0.06116238 0.004690197 0.0076045142 0.00788002 0.3212062 0.0052437205 0.057704188
0.022203695 -0.018377103 -0.006510526 -0.014685568 0.074816346 0.25058898 -0.005474675 -0.13813856
0.07696498 1.2596633 0.28325176 1.5796765 0.009197139 -0.07564143 0.0024119043 -0.065650254
0.00833693 0.11179213 -0.19283617 1.4845495 -0.059843943 -0.3588334 0.03473026 0.0444164
-0.016569113 -0.023848623 -0.05657103 -0.13554987 0.038255 0.016951853 -0.007648475 0.04469634
0.080738924 -0.03663026 0.17081034 -0.01565118 -0.13860334 0.04455964 0.34499964 0.2791988
0.28482303 -0.052642707 1.2840939 0.12468253 0.039790053 0.0036897277 -0.045592926 0.11123504
0.29871678 0.0010766299 0.2952895 -0.03115076 -0.003051819 -0.034174673 -0.015068636 -0.024480838
0.058254123 -0.096928805 0.364216 -0.1822843 -0.0013413912 -0.3167801 0.00089283584 1.5661653
-0.060368706 0.3917868 0.14189273 0.049800534 0.20321065 -0.40558457 0.039867762 -0.15278968
-0.027490973 0.0140430825 -0.025064114 0.43756565 -0.7177178 0.03974075 -0.024554867 1.6754787
-0.68771577 0.2005591 -0.05900157 -0.055317365 -0.43259463 -0.050125502 -0.7014455 -0.044680256
0.065122776 -0.039115544 0.35508364 0.9418305 -0.062270205 -0.029331995 -0.63217694 -0.16657631
0.02771632 -0.6057639 0.019967623 0.06362902 0.27750006 -0.41942275 -0.002082268 -0.06500334
-0.0022038026 0.19788063 1.7537647 -0.37494108 -0.01977417 0.14148515 0.20779513 0.059262432
0.8855791 0.016089888 0.39457774 0.33456016 0.08739372 0.3851154 0.143164 0.010103055
0.2930372 0.33696026 -0.06231685 -0.0319402 0.23703577 0.35676542 0.23438951 0.20655791
-0.07000296 0.05872559 -0.049253542 -0.03535647 0.29871467 -0.15050443 0.03849405 0.14525586
0.3418403 1.7095503 0.4294466 1.6191937 0.23436314 0.103925474 0.03867747 -0.035378225
-0.048225082 0.4172106 -0.09656214 1.8032725 -0.0011775919 -0.29598626 0.19460666 -0.0042242785
0.07754334 -0.048972536 0.023210997 0.09459903 0.18108737 -0.06273318 0.03322245 -0.011557454
-0.34672746 0.13784501 -0.2202527 0.38385144 0.12766023 0.2914098 0.340953 0.41260746
0.380982 0.1300846 1.7700841 0.25338724 0.2407301 -0.00079798186 0.35313612 0.23376678
0.36986896 -0.016849007 0.38481012 -0.018790262 -0.013312198 0.099886365 -0.016574325 0.035271995
-0.03821745 0.11269562 0.30458537 0.00096648047 0.1536825 -0.58893204 -0.050594844 1.5103688
00000000: aeb3 03bd a0a3 e13d fb34 cbbc 6423 003d
00000010: 0a16 903c cc1c 99be bf48 63bd c711 16bf
00000020: ac26 233d 3645 29bd 873c 0fbd 88f3 c33c
00000030: 0560 17bf 3bda 91bd 58ed f7bb c4b5 ba3f
00000040: e929 d8be 9a34 e43c a617 8a3c 150b 4dbd
00000050: 6fb6 b3be 6185 04bc 421e d4be 731f 26bd
00000060: 0628 123d 1084 5bbd e028 923e 7e7c 513f
00000070: 095f 8abd 4bdd 5dbb 5d17 2dbf 8a98 19be
00000080: 6099 cdbc ebdf 1dbf 5973 2bbe 996b cebd
00000090: cee0 433c ca31 9ebe 4573 1d3d 0512 e9bd
000000a0: 58d0 1cbd 8b51 abbd 7067 953f 2096 bbbe
000000b0: b412 3cbc dd83 f0bc 8f04 27bd dc9a 1ebd
000000c0: 50d7 073f b4ad 13bd e3c3 933d f677 643d
000000d0: b51b f7bd 5d39 753e 7a64 c1be d215 68bd
000000e0: 6831 8bbd 6785 7a3d 39b0 993b 4a2f f93b
000000f0: 331b 013c 2475 a43e 84d3 ab3b 3a5b 6c3d
00000100: 86e4 b53c 948b 96bc 4056 d5bb bd9b 70bc
00000110: 5039 993d 334d 803e e764 b3bb 3274 0dbe
00000120: d19f 9d3d a63c a13f 6006 913e d732 ca3f
00000130: 99af 163c e5e9 9abd 0a11 1e3b a473 86bd
00000140: 9e97 083c 46f3 e43d d876 45be b805 be3f
00000150: ec1e 75bd 03b9 b7be 5141 0e3d f9ed 353d
00000160: f3bb 87bc 305e c3bc 06b7 67bd 96cd 0abe
00000170: 46b1 1c3d 9dde 8a3c 0fa0 fabb 8213 373d
00000180: 735a a53d 9d09 16bd e8e8 2e3e e736 80bc
00000190: 09ee 0dbe 2b84 363d cba3 b03e 25f3 8e3e
000001a0: 53d4 913e e19f 57bd 305d a43f 8e59 ff3d
000001b0: e5fa 223d 5ccf 713b a6bf 3abd 32cf e33d
000001c0: 68f1 983e b41d 8d3a 2f30 973e e12f ffbc
000001d0: 0701 48bb befa 0bbd 71e2 76bc 0a8c c8bc
000001e0: e09b 6e3d 9c82 c6bd 857a ba3e bca8 3abe
000001f0: 9fd1 afba 0031 a2be 330d 6a3a 1b78 c83f
00000200: 2d45 77bd 4898 c83e 544c 113e a5fb 4b3d
00000210: 7416 503e c8a8 cfbe 614c 233d e674 1cbe
00000220: c034 e1bc f514 663c 4253 cdbc 9b08 e03e
00000230: 5bbc 37bf 32c7 223d 4a27 c9bc 1676 d63f
00000240: 240e 30bf 5d5f 4d3e a1ab 71bd 7694 62bd
00000250: 0b7d ddbe 6650 4dbd ef91 33bf a502 37bd
00000260: 175f 853d 9f37 20bd 86cd b53e ce1b 713f
00000270: 0b0f 7fbd a749 f0bc 59d6 21bf fb92 2abe
00000280: 560d e33c 5813 1bbf 2493 a33c ee4f 823d
00000290: 7d14 8e3e 94be d6be a976 08bb 7920 85bd
000002a0: ac6d 10bb 38a1 4a3e 5d7b e03f 47f8 bfbe
000002b0: 71fd a1bc 7ce1 103e 3fc8 543e 2abd 723d
000002c0: 50b5 623f f1ce 833c 1806 ca3e 784b ab3e
000002d0: 7bfb b23d d92d c53e 9599 123e 4987 253c
000002e0: f908 963e 0e86 ac3e f43f 7fbd bad3 02bd
000002f0: 81b9 723e f5a9 b63e ce03 703e eb83 533e
00000300: b65d 8fbd 3f8a 703d 15be 49bd f2d1 10bd
00000310: 21f1 983e d51d 1abe f0ab 1d3d f4bd 143e
00000320: b105 af3e 8bd2 da3f 6de0 db3e bd41 cf3f
00000330: e4fc 6f3e e1d6 d43d 446c 1e3d c2e8 10bd
00000340: aa87 45bd a19c d53e 5fc2 c5bd a2d1 e63f
00000350: 6d59 9aba 838b 97be f846 473e d16b 8abb
00000360: 0bcf 9e3d 6d97 48bd fd24 be3c 23bd c13d
00000370: f86e 393e 417a 80bd 4414 083d 7a5b 3dbc
00000380: 4386 b1be 3e27 0d3e ec89 61be 2d88 c43e
00000390: 5db9 023e aa33 953e 6491 ae3e 4941 d33e
000003a0: 1310 c33e e634 053e 1e92 e23f f9bb 813e
000003b0: f481 763e a82f 51ba 42ce b43e 8f60 6f3e
000003c0: 775f bd3e ee06 8abc d505 c53e 09ee 99bc
000003d0: 681b 5abc 3991 cc3d e1c6 87bc 5e79 103d
000003e0: e789 1cbd f6cc e63d 9df2 9b3e 685b 7d3a
000003f0: f25e 1d3e 40c4 16bf 8a3c 4fbd c453 c13f

layer3.bias f4 [5]
0.8597244 1.372651 7.4309916 12.076811 -0.05128312
00000000: e616 5c3f 07b3 af3f afca ed40 9e3a 4141
00000010: 400e 52bd
